1023 23:11:30.639950 18363 net.cpp:435] Input 0 -> data
I1023 23:11:30.641039 18363 net.cpp:76] Memory required for data: 0
I1023 23:11:30.641479 18363 layer_factory.hpp:76] Creating layer conv1
I1023 23:11:30.641780 18363 net.cpp:110] Creating Layer conv1
I1023 23:11:30.641871 18363 net.cpp:477] conv1 <- data
I1023 23:11:30.642010 18363 net.cpp:433] conv1 -> conv1
I1023 23:11:30.645458 18363 net.cpp:155] Setting up conv1
I1023 23:11:30.645725 18363 net.cpp:163] Top shape: 1 96 55 55 (290400)
I1023 23:11:30.645843 18363 net.cpp:174] Memory required for data: 580800
I1023 23:11:30.646210 18363 layer_factory.hpp:76] Creating layer relu1
I1023 23:11:30.646381 18363 net.cpp:110] Creating Layer relu1
I1023 23:11:30.646461 18363 net.cpp:477] relu1 <- conv1
I1023 23:11:30.646574 18363 net.cpp:419] relu1 -> conv1 (in-place)
I1023 23:11:30.646703 18363 net.cpp:155] Setting up relu1
I1023 23:11:30.646770 18363 net.cpp:163] Top shape: 1 96 55 55 (290400)
I1023 23:11:30.646843 18363 net.cpp:174] Memory required for data: 1161600
I1023 23:11:30.646914 18363 layer_factory.hpp:76] Creating layer norm1
I1023 23:11:30.647053 18363 net.cpp:110] Creating Layer norm1
I1023 23:11:30.647128 18363 net.cpp:477] norm1 <- conv1
I1023 23:11:30.647234 18363 net.cpp:433] norm1 -> norm1
I1023 23:11:30.647589 18363 net.cpp:155] Setting up norm1
I1023 23:11:30.647671 18363 net.cpp:163] Top shape: 1 96 55 55 (290400)
I1023 23:11:30.647744 18363 net.cpp:174] Memory required for data: 1742400
I1023 23:11:30.647815 18363 layer_factory.hpp:76] Creating layer pool1
I1023 23:11:30.647953 18363 net.cpp:110] Creating Layer pool1
I1023 23:11:30.648027 18363 net.cpp:477] pool1 <- norm1
I1023 23:11:30.648131 18363 net.cpp:433] pool1 -> pool1
I1023 23:11:30.648468 18363 net.cpp:155] Setting up pool1
I1023 23:11:30.648555 18363 net.cpp:163] Top shape: 1 96 27 27 (69984)
I1023 23:11:30.648629 18363 net.cpp:174] Memory required for data: 1882368
I1023 23:11:30.648699 18363 layer_factory.hpp:76] Creating layer conv2
I1023 23:11:30.648823 18363 net.cpp:110] Creating Layer conv2
I1023 23:11:30.648897 18363 net.cpp:477] conv2 <- pool1
I1023 23:11:30.649006 18363 net.cpp:433] conv2 -> conv2
I1023 23:11:30.660435 18363 net.cpp:155] Setting up conv2
I1023 23:11:30.660548 18363 net.cpp:163] Top shape: 1 256 27 27 (186624)
I1023 23:11:30.660614 18363 net.cpp:174] Memory required for data: 2255616
I1023 23:11:30.660768 18363 layer_factory.hpp:76] Creating layer relu2
I1023 23:11:30.660888 18363 net.cpp:110] Creating Layer relu2
I1023 23:11:30.660959 18363 net.cpp:477] relu2 <- conv2
I1023 23:11:30.661057 18363 net.cpp:419] relu2 -> conv2 (in-place)
I1023 23:11:30.661165 18363 net.cpp:155] Setting up relu2
I1023 23:11:30.661231 18363 net.cpp:163] Top shape: 1 256 27 27 (186624)
I1023 23:11:30.661293 18363 net.cpp:174] Memory required for data: 2628864
I1023 23:11:30.661350 18363 layer_factory.hpp:76] Creating layer norm2
I1023 23:11:30.661437 18363 net.cpp:110] Creating Layer norm2
I1023 23:11:30.661500 18363 net.cpp:477] norm2 <- conv2
I1023 23:11:30.661588 18363 net.cpp:433] norm2 -> norm2
I1023 23:11:30.661893 18363 net.cpp:155] Setting up norm2
I1023 23:11:30.661969 18363 net.cpp:163] Top shape: 1 256 27 27 (186624)
I1023 23:11:30.662024 18363 net.cpp:174] Memory required for data: 3002112
I1023 23:11:30.662077 18363 layer_factory.hpp:76] Creating layer pool2
I1023 23:11:30.662169 18363 net.cpp:110] Creating Layer pool2
I1023 23:11:30.662231 18363 net.cpp:477] pool2 <- norm2
I1023 23:11:30.662315 18363 net.cpp:433] pool2 -> pool2
I1023 23:11:30.662597 18363 net.cpp:155] Setting up pool2
I1023 23:11:30.662663 18363 net.cpp:163] Top shape: 1 256 13 13 (43264)
I1023 23:11:30.662719 18363 net.cpp:174] Memory required for data: 3088640
I1023 23:11:30.662770 18363 layer_factory.hpp:76] Creating layer conv3
I1023 23:11:30.662874 18363 net.cpp:110] Creating Layer conv3
I1023 23:11:30.662935 18363 net.cpp:477] conv3 <- pool2
I1023 23:11:30.663017 18363 net.cpp:433] conv3 -> conv3
I1023 23:11:30.690479 18363 net.cpp:155] Setting up conv3
I1023 23:11:30.690584 18363 net.cpp:163] Top shape: 1 384 13 13 (64896)
I1023 23:11:30.690661 18363 net.cpp:174] Memory required for data: 3218432
I1023 23:11:30.690834 18363 layer_factory.hpp:76] Creating layer relu3
I1023 23:11:30.690963 18363 net.cpp:110] Creating Layer relu3
I1023 23:11:30.691035 18363 net.cpp:477] relu3 <- conv3
I1023 23:11:30.691126 18363 net.cpp:419] relu3 -> conv3 (in-place)
I1023 23:11:30.691227 18363 net.cpp:155] Setting up relu3
I1023 23:11:30.691383 18363 net.cpp:163] Top shape: 1 384 13 13 (64896)
I1023 23:11:30.691452 18363 net.cpp:174] Memory required for data: 3348224
I1023 23:11:30.691505 18363 layer_factory.hpp:76] Creating layer conv4
I1023 23:11:30.691612 18363 net.cpp:110] Creating Layer conv4
I1023 23:11:30.691669 18363 net.cpp:477] conv4 <- conv3
I1023 23:11:30.691759 18363 net.cpp:433] conv4 -> conv4
I1023 23:11:30.710482 18363 net.cpp:155] Setting up conv4
I1023 23:11:30.710566 18363 net.cpp:163] Top shape: 1 384 13 13 (64896)
I1023 23:11:30.710623 18363 net.cpp:174] Memory required for data: 3478016
I1023 23:11:30.710713 18363 layer_factory.hpp:76] Creating layer relu4
I1023 23:11:30.710798 18363 net.cpp:110] Creating Layer relu4
I1023 23:11:30.710856 18363 net.cpp:477] relu4 <- conv4
I1023 23:11:30.710935 18363 net.cpp:419] relu4 -> conv4 (in-place)
I1023 23:11:30.711019 18363 net.cpp:155] Setting up relu4
I1023 23:11:30.711071 18363 net.cpp:163] Top shape: 1 384 13 13 (64896)
I1023 23:11:30.711122 18363 net.cpp:174] Memory required for data: 3607808
I1023 23:11:30.711171 18363 layer_factory.hpp:76] Creating layer conv5
I1023 23:11:30.711246 18363 net.cpp:110] Creating Layer conv5
I1023 23:11:30.711297 18363 net.cpp:477] conv5 <- conv4
I1023 23:11:30.711376 18363 net.cpp:433] conv5 -> conv5
I1023 23:11:30.724187 18363 net.cpp:155] Setting up conv5
I1023 23:11:30.724298 18363 net.cpp:163] Top shape: 1 256 13 13 (43264)
I1023 23:11:30.724355 18363 net.cpp:174] Memory required for data: 3694336
I1023 23:11:30.724500 18363 layer_factory.hpp:76] Creating layer relu5
I1023 23:11:30.724596 18363 net.cpp:110] Creating Layer relu5
I1023 23:11:30.724696 18363 net.cpp:477] relu5 <- conv5
I1023 23:11:30.724786 18363 net.cpp:419] relu5 -> conv5 (in-place)
I1023 23:11:30.724870 18363 net.cpp:155] Setting up relu5
I1023 23:11:30.724917 18363 net.cpp:163] Top shape: 1 256 13 13 (43264)
I1023 23:11:30.724963 18363 net.cpp:174] Memory required for data: 3780864
I1023 23:11:30.725008 18363 layer_factory.hpp:76] Creating layer pool5
I1023 23:11:30.725085 18363 net.cpp:110] Creating Layer pool5
I1023 23:11:30.725134 18363 net.cpp:477] pool5 <- conv5
I1023 23:11:30.725204 18363 net.cpp:433] pool5 -> pool5
I1023 23:11:30.725431 18363 net.cpp:155] Setting up pool5
I1023 23:11:30.725492 18363 net.cpp:163] Top shape: 1 256 6 6 (9216)
I1023 23:11:30.725548 18363 net.cpp:174] Memory required for data: 3799296
I1023 23:11:30.725600 18363 layer_factory.hpp:76] Creating layer fc6
I1023 23:11:30.725705 18363 net.cpp:110] Creating Layer fc6
I1023 23:11:30.725759 18363 net.cpp:477] fc6 <- pool5
I1023 23:11:30.725847 18363 net.cpp:433] fc6 -> fc6
I1023 23:11:31.664943 18363 net.cpp:155] Setting up fc6
I1023 23:11:31.665021 18363 net.cpp:163] Top shape: 1 4096 (4096)
I1023 23:11:31.665066 18363 net.cpp:174] Memory required for data: 3807488
I1023 23:11:31.665140 18363 layer_factory.hpp:76] Creating layer relu6
I1023 23:11:31.665238 18363 net.cpp:110] Creating Layer relu6
I1023 23:11:31.665285 18363 net.cpp:477] relu6 <- fc6
I1023 23:11:31.665355 18363 net.cpp:419] relu6 -> fc6 (in-place)
I1023 23:11:31.665422 18363 net.cpp:155] Setting up relu6
I1023 23:11:31.665459 18363 net.cpp:163] Top shape: 1 4096 (4096)
I1023 23:11:31.665498 18363 net.cpp:174] Memory required for data: 3815680
I1023 23:11:31.665539 18363 layer_factory.hpp:76] Creating layer drop6
I1023 23:11:31.665604 18363 net.cpp:110] Creating Layer drop6
I1023 23:11:31.665644 18363 net.cpp:477] drop6 <- fc6
I1023 23:11:31.665699 18363 net.cpp:419] drop6 -> fc6 (in-place)
I1023 23:11:31.665832 18363 net.cpp:155] Setting up drop6
I1023 23:11:31.665870 18363 net.cpp:163] Top shape: 1 4096 (4096)
I1023 23:11:31.665915 18363 net.cpp:174] Memory required for data: 3823872
I1023 23:11:31.665952 18363 layer_factory.hpp:76] Creating layer fc7
I1023 23:11:31.666010 18363 net.cpp:110] Creating Layer fc7
I1023 23:11:31.666049 18363 net.cpp:477] fc7 <- fc6
I1023 23:11:31.666106 18363 net.cpp:433] fc7 -> fc7
I1023 23:11:32.086058 18363 net.cpp:155] Setting up fc7
I1023 23:11:32.086146 18363 net.cpp:163] Top shape: 1 4096 (4096)
I1023 23:11:32.086258 18363 net.cpp:174] Memory required for data: 3832064
I1023 23:11:32.086336 18363 layer_factory.hpp:76] Creating layer relu7
I1023 23:11:32.086416 18363 net.cpp:110] Creating Layer relu7
I1023 23:11:32.086467 18363 net.cpp:477] relu7 <- fc7
I1023 23:11:32.086534 18363 net.cpp:419] relu7 -> fc7 (in-place)
I1023 23:11:32.086606 18363 net.cpp:155] Setting up relu7
I1023 23:11:32.086642 18363 net.cpp:163] Top shape: 1 4096 (4096)
I1023 23:11:32.086680 18363 net.cpp:174] Memory required for data: 3840256
I1023 23:11:32.086719 18363 layer_factory.hpp:76] Creating layer drop7
I1023 23:11:32.086771 18363 net.cpp:110] Creating Layer drop7
I1023 23:11:32.086812 18363 net.cpp:477] drop7 <- fc7
I1023 23:11:32.086863 18363 net.cpp:419] drop7 -> fc7 (in-place)
I1023 23:11:32.086982 18363 net.cpp:155] Setting up drop7
I1023 23:11:32.087021 18363 net.cpp:163] Top shape: 1 4096 (4096)
I1023 23:11:32.087060 18363 net.cpp:174] Memory required for data: 3848448
I1023 23:11:32.087100 18363 layer_factory.hpp:76] Creating layer fc8
I1023 23:11:32.087159 18363 net.cpp:110] Creating Layer fc8
I1023 23:11:32.087198 18363 net.cpp:477] fc8 <- fc7
I1023 23:11:32.087260 18363 net.cpp:433] fc8 -> fc8
I1023 23:11:32.195363 18363 net.cpp:155] Setting up fc8
I1023 23:11:32.195443 18363 net.cpp:163] Top shape: 1 1000 (1000)
I1023 23:11:32.195500 18363 net.cpp:174] Memory required for data: 3850448
I1023 23:11:32.195575 18363 layer_factory.hpp:76] Creating layer prob
I1023 23:11:32.195683 18363 net.cpp:110] Creating Layer prob
I1023 23:11:32.195734 18363 net.cpp:477] prob <- fc8
I1023 23:11:32.195802 18363 net.cpp:433] prob -> prob
I1023 23:11:32.196090 18363 net.cpp:155] Setting up prob
I1023 23:11:32.196135 18363 net.cpp:163] Top shape: 1 1000 (1000)
I1023 23:11:32.196179 18363 net.cpp:174] Memory required for data: 3852448
I1023 23:11:32.196223 18363 net.cpp:240] prob does not need backward computation.
I1023 23:11:32.196264 18363 net.cpp:240] fc8 does not need backward computation.
I1023 23:11:32.196303 18363 net.cpp:240] drop7 does not need backward computation.
I1023 23:11:32.196341 18363 net.cpp:240] relu7 does not need backward computation.
…
